{
	"nodes":[
		{"op":"null","name":"Input","attrs":{},"inputs":[]},
		{"op":"null","name":"1.Weights","attrs":{},"inputs":[]},
		{"op":"null","name":"1.Biases","attrs":{},"inputs":[]},
		{"op":"FullyConnected","name":"1","attrs":{"num_hidden":"8192","no_bias":"False"},"inputs":[[0,0,0],[1,0,0],[2,0,0]]},
		{"op":"Reshape","name":"2.1","attrs":{"shape":"(-1, 512, 4, 4)"},"inputs":[[3,0,0]]},
		{"op":"relu","name":"2.2$0","attrs":{},"inputs":[[4,0,0]]},
		{"op":"_RMinusScalar","name":"2.2$1","attrs":{"scalar":"0.0"},"inputs":[[4,0,0]]},
		{"op":"relu","name":"2.2$2","attrs":{},"inputs":[[6,0,0]]},
		{"op":"_MulScalar","name":"2.2$3","attrs":{"scalar":"0.2e0"},"inputs":[[7,0,0]]},
		{"op":"_Minus","name":"2.2$4","attrs":{},"inputs":[[5,0,0],[8,0,0]]},
		{"op":"square","name":"2.3$0","attrs":{},"inputs":[[9,0,0]]},
		{"op":"mean","name":"2.3$1","attrs":{"axis":"1","keepdims":"true"},"inputs":[[10,0,0]]},
		{"op":"_PlusScalar","name":"2.3$2","attrs":{"scalar":"0.1e-7"},"inputs":[[11,0,0]]},
		{"op":"rsqrt","name":"2.3$3","attrs":{},"inputs":[[12,0,0]]},
		{"op":"broadcast_mul","name":"2.3$4","attrs":{},"inputs":[[9,0,0],[13,0,0]]},
		{"op":"null","name":"2.4.Weights","attrs":{},"inputs":[]},
		{"op":"null","name":"2.4.Biases","attrs":{},"inputs":[]},
		{"op":"Convolution","name":"2.4","attrs":{"num_filter":"512","kernel":"(3, 3)","dilate":"(1, 1)","pad":"(1, 1)","stride":"(1, 1)","num_group":"1","no_bias":"False","layout":"None"},"inputs":[[14,0,0],[15,0,0],[16,0,0]]},
		{"op":"relu","name":"2.5$0","attrs":{},"inputs":[[17,0,0]]},
		{"op":"_RMinusScalar","name":"2.5$1","attrs":{"scalar":"0.0"},"inputs":[[17,0,0]]},
		{"op":"relu","name":"2.5$2","attrs":{},"inputs":[[19,0,0]]},
		{"op":"_MulScalar","name":"2.5$3","attrs":{"scalar":"0.2e0"},"inputs":[[20,0,0]]},
		{"op":"_Minus","name":"2.5$4","attrs":{},"inputs":[[18,0,0],[21,0,0]]},
		{"op":"square","name":"2.6$0","attrs":{},"inputs":[[22,0,0]]},
		{"op":"mean","name":"2.6$1","attrs":{"axis":"1","keepdims":"true"},"inputs":[[23,0,0]]},
		{"op":"_PlusScalar","name":"2.6$2","attrs":{"scalar":"0.1e-7"},"inputs":[[24,0,0]]},
		{"op":"rsqrt","name":"2.6$3","attrs":{},"inputs":[[25,0,0]]},
		{"op":"broadcast_mul","name":"2.6$4","attrs":{},"inputs":[[22,0,0],[26,0,0]]},
		{"op":"UpSampling","name":"3.1$0","attrs":{"scale":"2","sample_type":"nearest","num_args":"1"},"inputs":[[27,0,0]]},
		{"op":"null","name":"3.2.Weights","attrs":{},"inputs":[]},
		{"op":"null","name":"3.2.Biases","attrs":{},"inputs":[]},
		{"op":"Convolution","name":"3.2","attrs":{"num_filter":"512","kernel":"(3, 3)","dilate":"(1, 1)","pad":"(1, 1)","stride":"(1, 1)","num_group":"1","no_bias":"False","layout":"None"},"inputs":[[28,0,0],[29,0,0],[30,0,0]]},
		{"op":"relu","name":"3.3$0","attrs":{},"inputs":[[31,0,0]]},
		{"op":"_RMinusScalar","name":"3.3$1","attrs":{"scalar":"0.0"},"inputs":[[31,0,0]]},
		{"op":"relu","name":"3.3$2","attrs":{},"inputs":[[33,0,0]]},
		{"op":"_MulScalar","name":"3.3$3","attrs":{"scalar":"0.2e0"},"inputs":[[34,0,0]]},
		{"op":"_Minus","name":"3.3$4","attrs":{},"inputs":[[32,0,0],[35,0,0]]},
		{"op":"square","name":"3.4$0","attrs":{},"inputs":[[36,0,0]]},
		{"op":"mean","name":"3.4$1","attrs":{"axis":"1","keepdims":"true"},"inputs":[[37,0,0]]},
		{"op":"_PlusScalar","name":"3.4$2","attrs":{"scalar":"0.1e-7"},"inputs":[[38,0,0]]},
		{"op":"rsqrt","name":"3.4$3","attrs":{},"inputs":[[39,0,0]]},
		{"op":"broadcast_mul","name":"3.4$4","attrs":{},"inputs":[[36,0,0],[40,0,0]]},
		{"op":"null","name":"3.5.Weights","attrs":{},"inputs":[]},
		{"op":"null","name":"3.5.Biases","attrs":{},"inputs":[]},
		{"op":"Convolution","name":"3.5","attrs":{"num_filter":"512","kernel":"(3, 3)","dilate":"(1, 1)","pad":"(1, 1)","stride":"(1, 1)","num_group":"1","no_bias":"False","layout":"None"},"inputs":[[41,0,0],[42,0,0],[43,0,0]]},
		{"op":"relu","name":"3.6$0","attrs":{},"inputs":[[44,0,0]]},
		{"op":"_RMinusScalar","name":"3.6$1","attrs":{"scalar":"0.0"},"inputs":[[44,0,0]]},
		{"op":"relu","name":"3.6$2","attrs":{},"inputs":[[46,0,0]]},
		{"op":"_MulScalar","name":"3.6$3","attrs":{"scalar":"0.2e0"},"inputs":[[47,0,0]]},
		{"op":"_Minus","name":"3.6$4","attrs":{},"inputs":[[45,0,0],[48,0,0]]},
		{"op":"square","name":"3.7$0","attrs":{},"inputs":[[49,0,0]]},
		{"op":"mean","name":"3.7$1","attrs":{"axis":"1","keepdims":"true"},"inputs":[[50,0,0]]},
		{"op":"_PlusScalar","name":"3.7$2","attrs":{"scalar":"0.1e-7"},"inputs":[[51,0,0]]},
		{"op":"rsqrt","name":"3.7$3","attrs":{},"inputs":[[52,0,0]]},
		{"op":"broadcast_mul","name":"3.7$4","attrs":{},"inputs":[[49,0,0],[53,0,0]]},
		{"op":"UpSampling","name":"4.1$0","attrs":{"scale":"2","sample_type":"nearest","num_args":"1"},"inputs":[[54,0,0]]},
		{"op":"null","name":"4.2.Weights","attrs":{},"inputs":[]},
		{"op":"null","name":"4.2.Biases","attrs":{},"inputs":[]},
		{"op":"Convolution","name":"4.2","attrs":{"num_filter":"512","kernel":"(3, 3)","dilate":"(1, 1)","pad":"(1, 1)","stride":"(1, 1)","num_group":"1","no_bias":"False","layout":"None"},"inputs":[[55,0,0],[56,0,0],[57,0,0]]},
		{"op":"relu","name":"4.3$0","attrs":{},"inputs":[[58,0,0]]},
		{"op":"_RMinusScalar","name":"4.3$1","attrs":{"scalar":"0.0"},"inputs":[[58,0,0]]},
		{"op":"relu","name":"4.3$2","attrs":{},"inputs":[[60,0,0]]},
		{"op":"_MulScalar","name":"4.3$3","attrs":{"scalar":"0.2e0"},"inputs":[[61,0,0]]},
		{"op":"_Minus","name":"4.3$4","attrs":{},"inputs":[[59,0,0],[62,0,0]]},
		{"op":"square","name":"4.4$0","attrs":{},"inputs":[[63,0,0]]},
		{"op":"mean","name":"4.4$1","attrs":{"axis":"1","keepdims":"true"},"inputs":[[64,0,0]]},
		{"op":"_PlusScalar","name":"4.4$2","attrs":{"scalar":"0.1e-7"},"inputs":[[65,0,0]]},
		{"op":"rsqrt","name":"4.4$3","attrs":{},"inputs":[[66,0,0]]},
		{"op":"broadcast_mul","name":"4.4$4","attrs":{},"inputs":[[63,0,0],[67,0,0]]},
		{"op":"null","name":"4.5.Weights","attrs":{},"inputs":[]},
		{"op":"null","name":"4.5.Biases","attrs":{},"inputs":[]},
		{"op":"Convolution","name":"4.5","attrs":{"num_filter":"512","kernel":"(3, 3)","dilate":"(1, 1)","pad":"(1, 1)","stride":"(1, 1)","num_group":"1","no_bias":"False","layout":"None"},"inputs":[[68,0,0],[69,0,0],[70,0,0]]},
		{"op":"relu","name":"4.6$0","attrs":{},"inputs":[[71,0,0]]},
		{"op":"_RMinusScalar","name":"4.6$1","attrs":{"scalar":"0.0"},"inputs":[[71,0,0]]},
		{"op":"relu","name":"4.6$2","attrs":{},"inputs":[[73,0,0]]},
		{"op":"_MulScalar","name":"4.6$3","attrs":{"scalar":"0.2e0"},"inputs":[[74,0,0]]},
		{"op":"_Minus","name":"4.6$4","attrs":{},"inputs":[[72,0,0],[75,0,0]]},
		{"op":"square","name":"4.7$0","attrs":{},"inputs":[[76,0,0]]},
		{"op":"mean","name":"4.7$1","attrs":{"axis":"1","keepdims":"true"},"inputs":[[77,0,0]]},
		{"op":"_PlusScalar","name":"4.7$2","attrs":{"scalar":"0.1e-7"},"inputs":[[78,0,0]]},
		{"op":"rsqrt","name":"4.7$3","attrs":{},"inputs":[[79,0,0]]},
		{"op":"broadcast_mul","name":"4.7$4","attrs":{},"inputs":[[76,0,0],[80,0,0]]},
		{"op":"UpSampling","name":"5.1$0","attrs":{"scale":"2","sample_type":"nearest","num_args":"1"},"inputs":[[81,0,0]]},
		{"op":"null","name":"5.2.Weights","attrs":{},"inputs":[]},
		{"op":"null","name":"5.2.Biases","attrs":{},"inputs":[]},
		{"op":"Convolution","name":"5.2","attrs":{"num_filter":"512","kernel":"(3, 3)","dilate":"(1, 1)","pad":"(1, 1)","stride":"(1, 1)","num_group":"1","no_bias":"False","layout":"None"},"inputs":[[82,0,0],[83,0,0],[84,0,0]]},
		{"op":"relu","name":"5.3$0","attrs":{},"inputs":[[85,0,0]]},
		{"op":"_RMinusScalar","name":"5.3$1","attrs":{"scalar":"0.0"},"inputs":[[85,0,0]]},
		{"op":"relu","name":"5.3$2","attrs":{},"inputs":[[87,0,0]]},
		{"op":"_MulScalar","name":"5.3$3","attrs":{"scalar":"0.2e0"},"inputs":[[88,0,0]]},
		{"op":"_Minus","name":"5.3$4","attrs":{},"inputs":[[86,0,0],[89,0,0]]},
		{"op":"square","name":"5.4$0","attrs":{},"inputs":[[90,0,0]]},
		{"op":"mean","name":"5.4$1","attrs":{"axis":"1","keepdims":"true"},"inputs":[[91,0,0]]},
		{"op":"_PlusScalar","name":"5.4$2","attrs":{"scalar":"0.1e-7"},"inputs":[[92,0,0]]},
		{"op":"rsqrt","name":"5.4$3","attrs":{},"inputs":[[93,0,0]]},
		{"op":"broadcast_mul","name":"5.4$4","attrs":{},"inputs":[[90,0,0],[94,0,0]]},
		{"op":"null","name":"5.5.Weights","attrs":{},"inputs":[]},
		{"op":"null","name":"5.5.Biases","attrs":{},"inputs":[]},
		{"op":"Convolution","name":"5.5","attrs":{"num_filter":"512","kernel":"(3, 3)","dilate":"(1, 1)","pad":"(1, 1)","stride":"(1, 1)","num_group":"1","no_bias":"False","layout":"None"},"inputs":[[95,0,0],[96,0,0],[97,0,0]]},
		{"op":"relu","name":"5.6$0","attrs":{},"inputs":[[98,0,0]]},
		{"op":"_RMinusScalar","name":"5.6$1","attrs":{"scalar":"0.0"},"inputs":[[98,0,0]]},
		{"op":"relu","name":"5.6$2","attrs":{},"inputs":[[100,0,0]]},
		{"op":"_MulScalar","name":"5.6$3","attrs":{"scalar":"0.2e0"},"inputs":[[101,0,0]]},
		{"op":"_Minus","name":"5.6$4","attrs":{},"inputs":[[99,0,0],[102,0,0]]},
		{"op":"square","name":"5.7$0","attrs":{},"inputs":[[103,0,0]]},
		{"op":"mean","name":"5.7$1","attrs":{"axis":"1","keepdims":"true"},"inputs":[[104,0,0]]},
		{"op":"_PlusScalar","name":"5.7$2","attrs":{"scalar":"0.1e-7"},"inputs":[[105,0,0]]},
		{"op":"rsqrt","name":"5.7$3","attrs":{},"inputs":[[106,0,0]]},
		{"op":"broadcast_mul","name":"5.7$4","attrs":{},"inputs":[[103,0,0],[107,0,0]]},
		{"op":"UpSampling","name":"6.1$0","attrs":{"scale":"2","sample_type":"nearest","num_args":"1"},"inputs":[[108,0,0]]},
		{"op":"null","name":"6.2.Weights","attrs":{},"inputs":[]},
		{"op":"null","name":"6.2.Biases","attrs":{},"inputs":[]},
		{"op":"Convolution","name":"6.2","attrs":{"num_filter":"256","kernel":"(3, 3)","dilate":"(1, 1)","pad":"(1, 1)","stride":"(1, 1)","num_group":"1","no_bias":"False","layout":"None"},"inputs":[[109,0,0],[110,0,0],[111,0,0]]},
		{"op":"relu","name":"6.3$0","attrs":{},"inputs":[[112,0,0]]},
		{"op":"_RMinusScalar","name":"6.3$1","attrs":{"scalar":"0.0"},"inputs":[[112,0,0]]},
		{"op":"relu","name":"6.3$2","attrs":{},"inputs":[[114,0,0]]},
		{"op":"_MulScalar","name":"6.3$3","attrs":{"scalar":"0.2e0"},"inputs":[[115,0,0]]},
		{"op":"_Minus","name":"6.3$4","attrs":{},"inputs":[[113,0,0],[116,0,0]]},
		{"op":"square","name":"6.4$0","attrs":{},"inputs":[[117,0,0]]},
		{"op":"mean","name":"6.4$1","attrs":{"axis":"1","keepdims":"true"},"inputs":[[118,0,0]]},
		{"op":"_PlusScalar","name":"6.4$2","attrs":{"scalar":"0.1e-7"},"inputs":[[119,0,0]]},
		{"op":"rsqrt","name":"6.4$3","attrs":{},"inputs":[[120,0,0]]},
		{"op":"broadcast_mul","name":"6.4$4","attrs":{},"inputs":[[117,0,0],[121,0,0]]},
		{"op":"null","name":"6.5.Weights","attrs":{},"inputs":[]},
		{"op":"null","name":"6.5.Biases","attrs":{},"inputs":[]},
		{"op":"Convolution","name":"6.5","attrs":{"num_filter":"256","kernel":"(3, 3)","dilate":"(1, 1)","pad":"(1, 1)","stride":"(1, 1)","num_group":"1","no_bias":"False","layout":"None"},"inputs":[[122,0,0],[123,0,0],[124,0,0]]},
		{"op":"relu","name":"6.6$0","attrs":{},"inputs":[[125,0,0]]},
		{"op":"_RMinusScalar","name":"6.6$1","attrs":{"scalar":"0.0"},"inputs":[[125,0,0]]},
		{"op":"relu","name":"6.6$2","attrs":{},"inputs":[[127,0,0]]},
		{"op":"_MulScalar","name":"6.6$3","attrs":{"scalar":"0.2e0"},"inputs":[[128,0,0]]},
		{"op":"_Minus","name":"6.6$4","attrs":{},"inputs":[[126,0,0],[129,0,0]]},
		{"op":"square","name":"6.7$0","attrs":{},"inputs":[[130,0,0]]},
		{"op":"mean","name":"6.7$1","attrs":{"axis":"1","keepdims":"true"},"inputs":[[131,0,0]]},
		{"op":"_PlusScalar","name":"6.7$2","attrs":{"scalar":"0.1e-7"},"inputs":[[132,0,0]]},
		{"op":"rsqrt","name":"6.7$3","attrs":{},"inputs":[[133,0,0]]},
		{"op":"broadcast_mul","name":"6.7$4","attrs":{},"inputs":[[130,0,0],[134,0,0]]},
		{"op":"UpSampling","name":"7.1$0","attrs":{"scale":"2","sample_type":"nearest","num_args":"1"},"inputs":[[135,0,0]]},
		{"op":"null","name":"7.2.Weights","attrs":{},"inputs":[]},
		{"op":"null","name":"7.2.Biases","attrs":{},"inputs":[]},
		{"op":"Convolution","name":"7.2","attrs":{"num_filter":"128","kernel":"(3, 3)","dilate":"(1, 1)","pad":"(1, 1)","stride":"(1, 1)","num_group":"1","no_bias":"False","layout":"None"},"inputs":[[136,0,0],[137,0,0],[138,0,0]]},
		{"op":"relu","name":"7.3$0","attrs":{},"inputs":[[139,0,0]]},
		{"op":"_RMinusScalar","name":"7.3$1","attrs":{"scalar":"0.0"},"inputs":[[139,0,0]]},
		{"op":"relu","name":"7.3$2","attrs":{},"inputs":[[141,0,0]]},
		{"op":"_MulScalar","name":"7.3$3","attrs":{"scalar":"0.2e0"},"inputs":[[142,0,0]]},
		{"op":"_Minus","name":"7.3$4","attrs":{},"inputs":[[140,0,0],[143,0,0]]},
		{"op":"square","name":"7.4$0","attrs":{},"inputs":[[144,0,0]]},
		{"op":"mean","name":"7.4$1","attrs":{"axis":"1","keepdims":"true"},"inputs":[[145,0,0]]},
		{"op":"_PlusScalar","name":"7.4$2","attrs":{"scalar":"0.1e-7"},"inputs":[[146,0,0]]},
		{"op":"rsqrt","name":"7.4$3","attrs":{},"inputs":[[147,0,0]]},
		{"op":"broadcast_mul","name":"7.4$4","attrs":{},"inputs":[[144,0,0],[148,0,0]]},
		{"op":"null","name":"7.5.Weights","attrs":{},"inputs":[]},
		{"op":"null","name":"7.5.Biases","attrs":{},"inputs":[]},
		{"op":"Convolution","name":"7.5","attrs":{"num_filter":"128","kernel":"(3, 3)","dilate":"(1, 1)","pad":"(1, 1)","stride":"(1, 1)","num_group":"1","no_bias":"False","layout":"None"},"inputs":[[149,0,0],[150,0,0],[151,0,0]]},
		{"op":"relu","name":"7.6$0","attrs":{},"inputs":[[152,0,0]]},
		{"op":"_RMinusScalar","name":"7.6$1","attrs":{"scalar":"0.0"},"inputs":[[152,0,0]]},
		{"op":"relu","name":"7.6$2","attrs":{},"inputs":[[154,0,0]]},
		{"op":"_MulScalar","name":"7.6$3","attrs":{"scalar":"0.2e0"},"inputs":[[155,0,0]]},
		{"op":"_Minus","name":"7.6$4","attrs":{},"inputs":[[153,0,0],[156,0,0]]},
		{"op":"square","name":"7.7$0","attrs":{},"inputs":[[157,0,0]]},
		{"op":"mean","name":"7.7$1","attrs":{"axis":"1","keepdims":"true"},"inputs":[[158,0,0]]},
		{"op":"_PlusScalar","name":"7.7$2","attrs":{"scalar":"0.1e-7"},"inputs":[[159,0,0]]},
		{"op":"rsqrt","name":"7.7$3","attrs":{},"inputs":[[160,0,0]]},
		{"op":"broadcast_mul","name":"7.7$4","attrs":{},"inputs":[[157,0,0],[161,0,0]]},
		{"op":"UpSampling","name":"8.1$0","attrs":{"scale":"2","sample_type":"nearest","num_args":"1"},"inputs":[[162,0,0]]},
		{"op":"null","name":"8.2.Weights","attrs":{},"inputs":[]},
		{"op":"null","name":"8.2.Biases","attrs":{},"inputs":[]},
		{"op":"Convolution","name":"8.2","attrs":{"num_filter":"64","kernel":"(3, 3)","dilate":"(1, 1)","pad":"(1, 1)","stride":"(1, 1)","num_group":"1","no_bias":"False","layout":"None"},"inputs":[[163,0,0],[164,0,0],[165,0,0]]},
		{"op":"relu","name":"8.3$0","attrs":{},"inputs":[[166,0,0]]},
		{"op":"_RMinusScalar","name":"8.3$1","attrs":{"scalar":"0.0"},"inputs":[[166,0,0]]},
		{"op":"relu","name":"8.3$2","attrs":{},"inputs":[[168,0,0]]},
		{"op":"_MulScalar","name":"8.3$3","attrs":{"scalar":"0.2e0"},"inputs":[[169,0,0]]},
		{"op":"_Minus","name":"8.3$4","attrs":{},"inputs":[[167,0,0],[170,0,0]]},
		{"op":"square","name":"8.4$0","attrs":{},"inputs":[[171,0,0]]},
		{"op":"mean","name":"8.4$1","attrs":{"axis":"1","keepdims":"true"},"inputs":[[172,0,0]]},
		{"op":"_PlusScalar","name":"8.4$2","attrs":{"scalar":"0.1e-7"},"inputs":[[173,0,0]]},
		{"op":"rsqrt","name":"8.4$3","attrs":{},"inputs":[[174,0,0]]},
		{"op":"broadcast_mul","name":"8.4$4","attrs":{},"inputs":[[171,0,0],[175,0,0]]},
		{"op":"null","name":"8.5.Weights","attrs":{},"inputs":[]},
		{"op":"null","name":"8.5.Biases","attrs":{},"inputs":[]},
		{"op":"Convolution","name":"8.5","attrs":{"num_filter":"64","kernel":"(3, 3)","dilate":"(1, 1)","pad":"(1, 1)","stride":"(1, 1)","num_group":"1","no_bias":"False","layout":"None"},"inputs":[[176,0,0],[177,0,0],[178,0,0]]},
		{"op":"relu","name":"8.6$0","attrs":{},"inputs":[[179,0,0]]},
		{"op":"_RMinusScalar","name":"8.6$1","attrs":{"scalar":"0.0"},"inputs":[[179,0,0]]},
		{"op":"relu","name":"8.6$2","attrs":{},"inputs":[[181,0,0]]},
		{"op":"_MulScalar","name":"8.6$3","attrs":{"scalar":"0.2e0"},"inputs":[[182,0,0]]},
		{"op":"_Minus","name":"8.6$4","attrs":{},"inputs":[[180,0,0],[183,0,0]]},
		{"op":"square","name":"8.7$0","attrs":{},"inputs":[[184,0,0]]},
		{"op":"mean","name":"8.7$1","attrs":{"axis":"1","keepdims":"true"},"inputs":[[185,0,0]]},
		{"op":"_PlusScalar","name":"8.7$2","attrs":{"scalar":"0.1e-7"},"inputs":[[186,0,0]]},
		{"op":"rsqrt","name":"8.7$3","attrs":{},"inputs":[[187,0,0]]},
		{"op":"broadcast_mul","name":"8.7$4","attrs":{},"inputs":[[184,0,0],[188,0,0]]},
		{"op":"UpSampling","name":"9.1$0","attrs":{"scale":"2","sample_type":"nearest","num_args":"1"},"inputs":[[189,0,0]]},
		{"op":"null","name":"9.2.Weights","attrs":{},"inputs":[]},
		{"op":"null","name":"9.2.Biases","attrs":{},"inputs":[]},
		{"op":"Convolution","name":"9.2","attrs":{"num_filter":"32","kernel":"(3, 3)","dilate":"(1, 1)","pad":"(1, 1)","stride":"(1, 1)","num_group":"1","no_bias":"False","layout":"None"},"inputs":[[190,0,0],[191,0,0],[192,0,0]]},
		{"op":"relu","name":"9.3$0","attrs":{},"inputs":[[193,0,0]]},
		{"op":"_RMinusScalar","name":"9.3$1","attrs":{"scalar":"0.0"},"inputs":[[193,0,0]]},
		{"op":"relu","name":"9.3$2","attrs":{},"inputs":[[195,0,0]]},
		{"op":"_MulScalar","name":"9.3$3","attrs":{"scalar":"0.2e0"},"inputs":[[196,0,0]]},
		{"op":"_Minus","name":"9.3$4","attrs":{},"inputs":[[194,0,0],[197,0,0]]},
		{"op":"square","name":"9.4$0","attrs":{},"inputs":[[198,0,0]]},
		{"op":"mean","name":"9.4$1","attrs":{"axis":"1","keepdims":"true"},"inputs":[[199,0,0]]},
		{"op":"_PlusScalar","name":"9.4$2","attrs":{"scalar":"0.1e-7"},"inputs":[[200,0,0]]},
		{"op":"rsqrt","name":"9.4$3","attrs":{},"inputs":[[201,0,0]]},
		{"op":"broadcast_mul","name":"9.4$4","attrs":{},"inputs":[[198,0,0],[202,0,0]]},
		{"op":"null","name":"9.5.Weights","attrs":{},"inputs":[]},
		{"op":"null","name":"9.5.Biases","attrs":{},"inputs":[]},
		{"op":"Convolution","name":"9.5","attrs":{"num_filter":"32","kernel":"(3, 3)","dilate":"(1, 1)","pad":"(1, 1)","stride":"(1, 1)","num_group":"1","no_bias":"False","layout":"None"},"inputs":[[203,0,0],[204,0,0],[205,0,0]]},
		{"op":"relu","name":"9.6$0","attrs":{},"inputs":[[206,0,0]]},
		{"op":"_RMinusScalar","name":"9.6$1","attrs":{"scalar":"0.0"},"inputs":[[206,0,0]]},
		{"op":"relu","name":"9.6$2","attrs":{},"inputs":[[208,0,0]]},
		{"op":"_MulScalar","name":"9.6$3","attrs":{"scalar":"0.2e0"},"inputs":[[209,0,0]]},
		{"op":"_Minus","name":"9.6$4","attrs":{},"inputs":[[207,0,0],[210,0,0]]},
		{"op":"square","name":"9.7$0","attrs":{},"inputs":[[211,0,0]]},
		{"op":"mean","name":"9.7$1","attrs":{"axis":"1","keepdims":"true"},"inputs":[[212,0,0]]},
		{"op":"_PlusScalar","name":"9.7$2","attrs":{"scalar":"0.1e-7"},"inputs":[[213,0,0]]},
		{"op":"rsqrt","name":"9.7$3","attrs":{},"inputs":[[214,0,0]]},
		{"op":"broadcast_mul","name":"9.7$4","attrs":{},"inputs":[[211,0,0],[215,0,0]]},
		{"op":"UpSampling","name":"10.1$0","attrs":{"scale":"2","sample_type":"nearest","num_args":"1"},"inputs":[[216,0,0]]},
		{"op":"null","name":"10.2.Weights","attrs":{},"inputs":[]},
		{"op":"null","name":"10.2.Biases","attrs":{},"inputs":[]},
		{"op":"Convolution","name":"10.2","attrs":{"num_filter":"16","kernel":"(3, 3)","dilate":"(1, 1)","pad":"(1, 1)","stride":"(1, 1)","num_group":"1","no_bias":"False","layout":"None"},"inputs":[[217,0,0],[218,0,0],[219,0,0]]},
		{"op":"relu","name":"10.3$0","attrs":{},"inputs":[[220,0,0]]},
		{"op":"_RMinusScalar","name":"10.3$1","attrs":{"scalar":"0.0"},"inputs":[[220,0,0]]},
		{"op":"relu","name":"10.3$2","attrs":{},"inputs":[[222,0,0]]},
		{"op":"_MulScalar","name":"10.3$3","attrs":{"scalar":"0.2e0"},"inputs":[[223,0,0]]},
		{"op":"_Minus","name":"10.3$4","attrs":{},"inputs":[[221,0,0],[224,0,0]]},
		{"op":"square","name":"10.4$0","attrs":{},"inputs":[[225,0,0]]},
		{"op":"mean","name":"10.4$1","attrs":{"axis":"1","keepdims":"true"},"inputs":[[226,0,0]]},
		{"op":"_PlusScalar","name":"10.4$2","attrs":{"scalar":"0.1e-7"},"inputs":[[227,0,0]]},
		{"op":"rsqrt","name":"10.4$3","attrs":{},"inputs":[[228,0,0]]},
		{"op":"broadcast_mul","name":"10.4$4","attrs":{},"inputs":[[225,0,0],[229,0,0]]},
		{"op":"null","name":"10.5.Weights","attrs":{},"inputs":[]},
		{"op":"null","name":"10.5.Biases","attrs":{},"inputs":[]},
		{"op":"Convolution","name":"10.5","attrs":{"num_filter":"16","kernel":"(3, 3)","dilate":"(1, 1)","pad":"(1, 1)","stride":"(1, 1)","num_group":"1","no_bias":"False","layout":"None"},"inputs":[[230,0,0],[231,0,0],[232,0,0]]},
		{"op":"relu","name":"10.6$0","attrs":{},"inputs":[[233,0,0]]},
		{"op":"_RMinusScalar","name":"10.6$1","attrs":{"scalar":"0.0"},"inputs":[[233,0,0]]},
		{"op":"relu","name":"10.6$2","attrs":{},"inputs":[[235,0,0]]},
		{"op":"_MulScalar","name":"10.6$3","attrs":{"scalar":"0.2e0"},"inputs":[[236,0,0]]},
		{"op":"_Minus","name":"10.6$4","attrs":{},"inputs":[[234,0,0],[237,0,0]]},
		{"op":"square","name":"10.7$0","attrs":{},"inputs":[[238,0,0]]},
		{"op":"mean","name":"10.7$1","attrs":{"axis":"1","keepdims":"true"},"inputs":[[239,0,0]]},
		{"op":"_PlusScalar","name":"10.7$2","attrs":{"scalar":"0.1e-7"},"inputs":[[240,0,0]]},
		{"op":"rsqrt","name":"10.7$3","attrs":{},"inputs":[[241,0,0]]},
		{"op":"broadcast_mul","name":"10.7$4","attrs":{},"inputs":[[238,0,0],[242,0,0]]},
		{"op":"null","name":"11.Weights","attrs":{},"inputs":[]},
		{"op":"null","name":"11.Biases","attrs":{},"inputs":[]},
		{"op":"Convolution","name":"11","attrs":{"num_filter":"3","kernel":"(1, 1)","dilate":"(1, 1)","pad":"(0, 0)","stride":"(1, 1)","num_group":"1","no_bias":"False","layout":"None"},"inputs":[[243,0,0],[244,0,0],[245,0,0]]},
		{"op":"identity","name":"Output","attrs":{},"inputs":[[246,0,0]]}
	],
	"arg_nodes":[0,1,2,15,16,29,30,42,43,56,57,69,70,83,84,96,97,110,111,123,124,137,138,150,151,164,165,177,178,191,192,204,205,218,219,231,232,244,245],
	"heads":[
		[247,0,0]
	],
	"attrs":{
		"mxnet_version":["int",10001]
	}
}